Model: "sequential"
┌─────────────────────────────────┬────────────────────────┬───────────────┐
│ Layer (type)                    │ Output Shape           │       Param # │
├─────────────────────────────────┼────────────────────────┼───────────────┤
│ flatten (Flatten)               │ (None, 12288)          │             0 │
├─────────────────────────────────┼────────────────────────┼───────────────┤
│ dense (Dense)                   │ (None, 256)            │     3,145,984 │
├─────────────────────────────────┼────────────────────────┼───────────────┤
│ dense_1 (Dense)                 │ (None, 128)            │        32,896 │
├─────────────────────────────────┼────────────────────────┼───────────────┤
│ dense_2 (Dense)                 │ (None, 64)             │         8,256 │
├─────────────────────────────────┼────────────────────────┼───────────────┤
│ dense_3 (Dense)                 │ (None, 1)              │            65 │
└─────────────────────────────────┴────────────────────────┴───────────────┘
 Total params: 3,187,201 (12.16 MB)
 Trainable params: 3,187,201 (12.16 MB)
 Non-trainable params: 0 (0.00 B)
Epoch 1/15
625/625 ━━━━━━━━━━━━━━━━━━━━ 105s 59ms/step - accuracy: 0.5487 - loss: 0.7233 - val_accuracy: 0.5046 - val_loss: 0.7146
Epoch 2/15
625/625 ━━━━━━━━━━━━━━━━━━━━ 24s 39ms/step - accuracy: 0.5819 - loss: 0.6746 - val_accuracy: 0.5688 - val_loss: 0.6846
…
